==> Preparing data..
Files already downloaded and verified
Files already downloaded and verified
==> Building model..
==> Preparing the model for binarization
ResNet(
  (conv1): Conv2d(
    3, 64, kernel_size=(3, 3), stride=(1, 1), padding=(1, 1), bias=False
    (activation_pre_process): Identity()
    (activation_post_process): Identity()
    (weight_pre_process): Identity()
  )
  (bn1): BatchNorm2d(64, eps=1e-05, momentum=0.1, affine=True, track_running_stats=True)
  (relu): ReLU(inplace=True)
  (maxpool): MaxPool2d(kernel_size=1, stride=1, padding=0, dilation=1, ceil_mode=False)
  (layer1): Sequential(
    (0): BasicBlock(
      (conv1): Conv2d(
        64, 64, kernel_size=(3, 3), stride=(1, 1), padding=(1, 1), bias=False
        (activation_pre_process): BasicInputBinarizer()
        (activation_post_process): Identity()
        (weight_pre_process): XNORWeightBinarizer()
      )
      (bn1): BatchNorm2d(64, eps=1e-05, momentum=0.1, affine=True, track_running_stats=True)
      (conv2): Conv2d(
        64, 64, kernel_size=(3, 3), stride=(1, 1), padding=(1, 1), bias=False
        (activation_pre_process): BasicInputBinarizer()
        (activation_post_process): Identity()
        (weight_pre_process): XNORWeightBinarizer()
      )
      (bn2): BatchNorm2d(64, eps=1e-05, momentum=0.1, affine=True, track_running_stats=True)
      (act1): ReLU(inplace=True)
      (act2): ReLU(inplace=True)
    )
    (1): BasicBlock(
      (conv1): Conv2d(
        64, 64, kernel_size=(3, 3), stride=(1, 1), padding=(1, 1), bias=False
        (activation_pre_process): BasicInputBinarizer()
        (activation_post_process): Identity()
        (weight_pre_process): XNORWeightBinarizer()
      )
      (bn1): BatchNorm2d(64, eps=1e-05, momentum=0.1, affine=True, track_running_stats=True)
      (conv2): Conv2d(
        64, 64, kernel_size=(3, 3), stride=(1, 1), padding=(1, 1), bias=False
        (activation_pre_process): BasicInputBinarizer()
        (activation_post_process): Identity()
        (weight_pre_process): XNORWeightBinarizer()
      )
      (bn2): BatchNorm2d(64, eps=1e-05, momentum=0.1, affine=True, track_running_stats=True)
      (act1): ReLU(inplace=True)
      (act2): ReLU(inplace=True)
    )
  )
  (layer2): Sequential(
    (0): BasicBlock(
      (conv1): Conv2d(
        64, 128, kernel_size=(3, 3), stride=(2, 2), padding=(1, 1), bias=False
        (activation_pre_process): BasicInputBinarizer()
        (activation_post_process): Identity()
        (weight_pre_process): XNORWeightBinarizer()
      )
      (bn1): BatchNorm2d(128, eps=1e-05, momentum=0.1, affine=True, track_running_stats=True)
      (conv2): Conv2d(
        128, 128, kernel_size=(3, 3), stride=(1, 1), padding=(1, 1), bias=False
        (activation_pre_process): BasicInputBinarizer()
        (activation_post_process): Identity()
        (weight_pre_process): XNORWeightBinarizer()
      )
      (bn2): BatchNorm2d(128, eps=1e-05, momentum=0.1, affine=True, track_running_stats=True)
      (act1): ReLU(inplace=True)
      (act2): ReLU(inplace=True)
      (downsample): Sequential(
        (0): AvgPool2d(kernel_size=2, stride=2, padding=0)
        (1): Conv2d(
          64, 128, kernel_size=(1, 1), stride=(1, 1), bias=False
          (activation_pre_process): BasicInputBinarizer()
          (activation_post_process): Identity()
          (weight_pre_process): XNORWeightBinarizer()
        )
        (2): BatchNorm2d(128, eps=1e-05, momentum=0.1, affine=True, track_running_stats=True)
      )
    )
    (1): BasicBlock(
      (conv1): Conv2d(
        128, 128, kernel_size=(3, 3), stride=(1, 1), padding=(1, 1), bias=False
        (activation_pre_process): BasicInputBinarizer()
        (activation_post_process): Identity()
        (weight_pre_process): XNORWeightBinarizer()
      )
      (bn1): BatchNorm2d(128, eps=1e-05, momentum=0.1, affine=True, track_running_stats=True)
      (conv2): Conv2d(
        128, 128, kernel_size=(3, 3), stride=(1, 1), padding=(1, 1), bias=False
        (activation_pre_process): BasicInputBinarizer()
        (activation_post_process): Identity()
        (weight_pre_process): XNORWeightBinarizer()
      )
      (bn2): BatchNorm2d(128, eps=1e-05, momentum=0.1, affine=True, track_running_stats=True)
      (act1): ReLU(inplace=True)
      (act2): ReLU(inplace=True)
    )
  )
  (layer3): Sequential(
    (0): BasicBlock(
      (conv1): Conv2d(
        128, 256, kernel_size=(3, 3), stride=(2, 2), padding=(1, 1), bias=False
        (activation_pre_process): BasicInputBinarizer()
        (activation_post_process): Identity()
        (weight_pre_process): XNORWeightBinarizer()
      )
      (bn1): BatchNorm2d(256, eps=1e-05, momentum=0.1, affine=True, track_running_stats=True)
      (conv2): Conv2d(
        256, 256, kernel_size=(3, 3), stride=(1, 1), padding=(1, 1), bias=False
        (activation_pre_process): BasicInputBinarizer()
        (activation_post_process): Identity()
        (weight_pre_process): XNORWeightBinarizer()
      )
      (bn2): BatchNorm2d(256, eps=1e-05, momentum=0.1, affine=True, track_running_stats=True)
      (act1): ReLU(inplace=True)
      (act2): ReLU(inplace=True)
      (downsample): Sequential(
        (0): AvgPool2d(kernel_size=2, stride=2, padding=0)
        (1): Conv2d(
          128, 256, kernel_size=(1, 1), stride=(1, 1), bias=False
          (activation_pre_process): BasicInputBinarizer()
          (activation_post_process): Identity()
          (weight_pre_process): XNORWeightBinarizer()
        )
        (2): BatchNorm2d(256, eps=1e-05, momentum=0.1, affine=True, track_running_stats=True)
      )
    )
    (1): BasicBlock(
      (conv1): Conv2d(
        256, 256, kernel_size=(3, 3), stride=(1, 1), padding=(1, 1), bias=False
        (activation_pre_process): BasicInputBinarizer()
        (activation_post_process): Identity()
        (weight_pre_process): XNORWeightBinarizer()
      )
      (bn1): BatchNorm2d(256, eps=1e-05, momentum=0.1, affine=True, track_running_stats=True)
      (conv2): Conv2d(
        256, 256, kernel_size=(3, 3), stride=(1, 1), padding=(1, 1), bias=False
        (activation_pre_process): BasicInputBinarizer()
        (activation_post_process): Identity()
        (weight_pre_process): XNORWeightBinarizer()
      )
      (bn2): BatchNorm2d(256, eps=1e-05, momentum=0.1, affine=True, track_running_stats=True)
      (act1): ReLU(inplace=True)
      (act2): ReLU(inplace=True)
    )
  )
  (layer4): Sequential(
    (0): BasicBlock(
      (conv1): Conv2d(
        256, 512, kernel_size=(3, 3), stride=(2, 2), padding=(1, 1), bias=False
        (activation_pre_process): BasicInputBinarizer()
        (activation_post_process): Identity()
        (weight_pre_process): XNORWeightBinarizer()
      )
      (bn1): BatchNorm2d(512, eps=1e-05, momentum=0.1, affine=True, track_running_stats=True)
      (conv2): Conv2d(
        512, 512, kernel_size=(3, 3), stride=(1, 1), padding=(1, 1), bias=False
        (activation_pre_process): BasicInputBinarizer()
        (activation_post_process): Identity()
        (weight_pre_process): XNORWeightBinarizer()
      )
      (bn2): BatchNorm2d(512, eps=1e-05, momentum=0.1, affine=True, track_running_stats=True)
      (act1): ReLU(inplace=True)
      (act2): ReLU(inplace=True)
      (downsample): Sequential(
        (0): AvgPool2d(kernel_size=2, stride=2, padding=0)
        (1): Conv2d(
          256, 512, kernel_size=(1, 1), stride=(1, 1), bias=False
          (activation_pre_process): BasicInputBinarizer()
          (activation_post_process): Identity()
          (weight_pre_process): XNORWeightBinarizer()
        )
        (2): BatchNorm2d(512, eps=1e-05, momentum=0.1, affine=True, track_running_stats=True)
      )
    )
    (1): BasicBlock(
      (conv1): Conv2d(
        512, 512, kernel_size=(3, 3), stride=(1, 1), padding=(1, 1), bias=False
        (activation_pre_process): BasicInputBinarizer()
        (activation_post_process): Identity()
        (weight_pre_process): XNORWeightBinarizer()
      )
      (bn1): BatchNorm2d(512, eps=1e-05, momentum=0.1, affine=True, track_running_stats=True)
      (conv2): Conv2d(
        512, 512, kernel_size=(3, 3), stride=(1, 1), padding=(1, 1), bias=False
        (activation_pre_process): BasicInputBinarizer()
        (activation_post_process): Identity()
        (weight_pre_process): XNORWeightBinarizer()
      )
      (bn2): BatchNorm2d(512, eps=1e-05, momentum=0.1, affine=True, track_running_stats=True)
      (act1): ReLU(inplace=True)
      (act2): ReLU(inplace=True)
    )
  )
  (avgpool): AdaptiveAvgPool2d(output_size=(1, 1))
  (fc): Linear(
    in_features=512, out_features=10, bias=True
    (activation_pre_process): Identity()
    (activation_post_process): Identity()
    (weight_pre_process): Identity()
  )
)

Train Epoch: 0
Epoch: [0][  0/391]	Time 14.093 (14.093)	Data  0.221 ( 0.221)	Loss 2.4006e+00 (2.4006e+00)	Acc@1  13.28 ( 13.28)
Epoch: [0][100/391]	Time  0.691 ( 0.393)	Data  0.001 ( 0.005)	Loss 1.8197e+00 (1.9887e+00)	Acc@1  38.28 ( 25.02)
…
